models/autoencoder.pt (torch, 17928 bytes, 12 tensors)

encoder.0.weight f4 [64, 14]
00000000: 6ca5 b5bd ba8f 2d3e 36d8 643c 0612 613d
00000010: 5a04 c83d 6827 603d 5ee6 503e 16fe f0bc
00000020: c0d1 503e af35 8b3e d69f bebd 85ed e4bd
00000030: 896b 3c3d 06b4 c9be 00c4 cdbd b698 0bbe
00000040: ef29 4c3e 1352 14bd d41e bd3d 50ac 68bd
00000050: b26f 6abd c0df e43d c6f9 b83e e2a4 69bc
00000060: b21b 9dbd 46ba dabc c64c 5a3d 69c0 afbd
00000070: 7441 38be b871 383e 46fb 88bd 7c12 8bbd
00000080: 4bb3 d43b 7127 c8bd fa22 ec3d 2a91 193e
00000090: 33c7 23bd 51e6 81bd edd9 8cbc 350f 0dbd
000000a0: a9c0 b1be bfd3 623c 0800 fbbd 006f 3d3e
000000b0: 77d8 be3d fe99 613e 20c0 b23d 698e b4bd
000000c0: e836 0e3e 989c 463e 5fb2 41be 6486 2abe
000000d0: f1e7 2fbd 21f5 f0bd 8be4 fa3d 4d6b 69bd
000000e0: dc94 913c 6fea 213d 8acd 10bd 51a7 28be
000000f0: 3c41 1c3e f0db 8ebe dd92 013e cef2 e9bd
00000100: 12fe 063d 3d63 613d 5dd9 02be 32ca a7bd
00000110: 30d8 353b 6936 f3bd fc88 963d 3899 493c
00000120: 20c7 6cbe a8c7 52be d560 2bbe f48f d9bd
00000130: 2141 74be a74c 9b3b fc1f 7abd 950c 3c3e
00000140: a643 0c3e 9107 d2bd 1d90 50bd adb2 ca3d
00000150: f61c aabd 0658 01bd a155 84bd 9494 1fbe
00000160: 9014 4bbe 97e0 653e bd5b b43e 93ae 1d3c
00000170: 999a 80bd 723e 853d 3157 f53c f7ca 36bd
00000180: f000 e73c e36e 9c3d 7bb1 4a3d e7f2 333d
00000190: b6dc 0ebe 5eed 10be 291e d8bd d510 ed3d
000001a0: 877c babe e59a 3abd d00f dcb8 f548 943e
000001b0: 783f 5cbe aa91 62bd 15df a2bd c770 123e
000001c0: 24d2 3a3d f4e6 6dbc 42d5 24be a081 a33b
000001d0: cacb 04be 51c0 7c3e 287d a6bd f46e a23e
000001e0: 237b 9abc cc5d 97bc 10cf 583d 746c 4d3d
000001f0: 0ac7 493d da16 ba3d 02b3 43bd 8973 9b3d
00000200: 3a11 eb3d cab8 c03d 19a8 17bc bad9 793e
00000210: eadf 533e fffd d93c c8ca 98bb 585d 6cbd
00000220: 7d83 a93c 982e 43bd 393c 2ebc 1c12 d23d
00000230: 8553 db3c 93a5 46bd 8918 4fbd c6a4 103e
00000240: ff85 3c3e c48f e0bd 189b 973c fa6c 96be
00000250: b3fb bbbc 7312 92bd 4f3d a9bd d6c2 1dbd
00000260: 7236 ef3d 5812 0e3e d3d9 8b3d 86e5 243e
00000270: 9fa1 b93d 3244 69bc 33a4 493e 3f20 023e
00000280: 7390 b6bd 3b38 56be 47a3 2f3e 7c65 9b3e
00000290: d339 7e3c 43b1 9dbd 32e6 873d a30b 0d3e
000002a0: 8327 4abd 33a6 193d 1d4a cfbd 4b28 dc3d
000002b0: bd55 ffbd 7636 a2be b21e 133e f49a 16be
000002c0: cdf9 66bd c87c 7d3d df1b 023e 87f6 fbbd
000002d0: 2362 0c3d 8241 afbc 532e ab3d 881b f7bd
000002e0: 7022 703d 3a06 e63d aabf 053e 8b4e bdbd
000002f0: e627 bf3d f848 f5bd eb20 583e a410 e43d
00000300: b698 d43b 6d3b 493e 1d4e aebe b3a5 a6bd
00000310: 03f0 2cbd a962 77bd b47b a6bd e7af 1ebe
00000320: b109 45be a68b 73be a61a a03d 2c3c 4bbe
00000330: 131b f73c 0c7a e4bd f968 f7bd d10f 04bd
00000340: c0d0 313d 5396 82bd 43c0 923d 59c5 5c3d
00000350: 33ba d53b 187c 6abd 7458 f8bd a0cb 7c3d
00000360: 71e7 413d 3326 923e e676 9d3e 259e cdbd
00000370: 286e 04be 7fc6 453c 03f6 fd3d e407 623c
00000380: e1f8 e93c fe86 28be b31a 87bd 57d2 c83d
00000390: 2b1d 3bbe c313 1abe 5e62 893e e4f8 963e
000003a0: fb4e 8bbe a1f3 f8bc d3d9 3e3b 1240 a1bc
000003b0: 4657 223d 9cd8 c43d 6aff d43d d25a 6d3d
000003c0: 13cc e9bc 5c50 f3bc d39b 5f3e 424b 05bf
000003d0: 1836 babc 7d27 313c 011a debd c97f 48be
000003e0: fc77 55bc 76da 69bd 4a9b b8bd ba26 31bd
000003f0: 12c4 40be bf55 a93d 7d2c d73d b27b 343e
-0.08869442 0.16949359 0.013967564 0.05494883 0.09766455 0.05472508 0.20400378 -0.029418033
0.20392513 0.27189395 -0.0930783 -0.11178116 0.04600099 -0.3939516 -0.1004715 -0.13632473
0.19937871 -0.036211085 0.092343956 -0.056804955 -0.057235427 0.111754894 0.36128062 -0.0142605025
-0.07671298 -0.02670015 0.053295873 -0.08581621 -0.17993718 0.1801213 -0.066885516 -0.06790635
0.0064911 -0.09773148 0.11530109 0.14996782 -0.039984893 -0.063427575 -0.017193759 -0.03443833
-0.347173 0.0138444295 -0.12255865 0.18499374 0.09318631 0.220314 0.08728051 -0.08816225
0.13888133 0.19395673 -0.189157 -0.16652828 -0.042945806 -0.11765505 0.12250622 -0.056987096
0.017771177 0.039530214 -0.035352267 -0.16470076 0.1525926 -0.27902174 0.1265368 -0.114232644
0.032957144 0.05502628 -0.1277823 -0.081928626 0.0027747266 -0.11875612 0.073503464 0.012304597
-0.23122835 -0.20583975 -0.16736157 -0.1062316 -0.2385297 0.0047393623 -0.06106566 0.18364175
0.13697681 -0.102553494 -0.050918687 0.09897361 -0.08306305 -0.031578086 -0.06461645 -0.15584022
-0.19832063 0.22448955 0.3522624 0.009624141 -0.06279487 0.06506051 0.029948803 -0.044627156
0.02819869 0.076383375 0.049485665 0.04393282 -0.13951382 -0.14153048 -0.105526276 0.11575476
-0.36423132 -0.045557875 -0.00010493363 0.28961912 -0.21508586 -0.055314697 -0.07952706 0.14300834
0.045610562 -0.014520396 -0.16096976 0.0049898177 -0.12968364 0.24682738 -0.081293404 0.31725276
-0.018857544 -0.018477343 0.052931845 0.050152257 0.049262084 0.0908639 -0.047778137 0.07590396
0.11477895 0.09410246 -0.009256386 0.24399462 0.20690885 0.026610373 -0.0046628453 -0.057706207
0.020692581 -0.047651857 -0.010634475 0.1025736 0.026773224 -0.048497748 -0.050560508 0.14125356
0.1841049 -0.10964921 0.018506572 -0.29380018 -0.022947168 -0.07132425 -0.08263647 -0.03851589
0.116803065 0.13874185 0.06828656 0.16103181 0.0906403 -0.01423745 0.19691543 0.12707613
-0.0891427 -0.20919888 0.17152129 0.30350864 0.015516716 -0.076998256 0.06635703 0.1377397
-0.049354088 0.037512016 -0.10121558 0.10749873 -0.12467525 -0.31682175 0.14367178 -0.14707547
-0.056390572 0.06188658 0.12705944 -0.12302881 0.034273278 -0.021393541 0.08358445 -0.12065798
0.058626592 0.112316564 0.13061395 -0.092434965 0.09333782 -0.11976808 0.21106307 0.111359864
0.006487931 0.19651575 -0.3404397 -0.08137073 -0.04222108 -0.060396824 -0.08129063 -0.15496789
-0.19241978 -0.2378374 0.07817583 -0.19847172 0.030164277 -0.11156091 -0.12080569 -0.032241646
0.04341197 -0.06376328 0.07165577 0.053899143 0.006522441 -0.05724725 -0.12126246 0.06171763
0.04733986 0.2854477 0.30754775 -0.10039929 -0.12932646 0.012071251 0.12400439 0.013795827
0.028561058 -0.16457745 -0.06596889 0.09805744 -0.18272845 -0.15046601 0.2683286 0.29486763
-0.27208695 -0.030389609 0.0029121533 -0.019683871 0.03963401 0.096116275 0.10400279 0.05794794
-0.028539693 -0.029701404 0.21836786 -0.5206796 -0.022730872 0.010812637 -0.108448036 -0.19579996
-0.013029095 -0.057093106 -0.09013994 -0.043249823 -0.18824795 0.08268308 0.10506532 0.17625311

encoder.0.bias f4 [64]
00000000: 1917 9b3e b18e 053d 7387 e83d 6464 153c
00000010: c467 203f 20c7 0cbe cb47 8c3d fa9e 4a3e
00000020: f1ff ee3e 8268 383f ddab c2be 6bfd 293e
00000030: 5c30 e63e 399f d03e 771e 6e3e bd49 083e
00000040: e58f f43d a4f5 083e 1731 91be 3b2f 573e
00000050: f142 ac3e 0acc e93e 707d 003e 8c9b 933e
00000060: 381d 163e 8336 443f 34f7 673e 67a4 953e
00000070: 8167 2abe 37fc 803e d6c0 59bd e2bc 453f
00000080: af62 d23e 5d9d c33d 242d e9be d230 493e
00000090: 6431 3fbc 6a82 19be 354e a7bd e558 ef3e
000000a0: b60b 84be c598 98bd 91cc fbbd 7d8a e53e
000000b0: 81ad d4bd 364c f43e 4905 89bd 42fd 033f
000000c0: c803 3bbe 7363 42bd 8c28 243c e291 433e
000000d0: 1c3b 673e 3c65 e53e 435a 683e 58d4 d5bd
000000e0: fb44 3c3f 1c91 2cbe 458d 073e 8050 3f3f
000000f0: 345c 143f e0be 163f b794 823c 2930 00bd
0.3029106 0.032606784 0.1135396 0.009118173 0.62658334 -0.13747835 0.06849631 0.19787207
0.46679643 0.72034466 -0.38021746 0.16600578 0.4495877 0.40746477 0.23253809 0.13309379
0.11941508 0.13374954 -0.28357765 0.2101411 0.33644822 0.45663482 0.1254785 0.2882961
0.14659584 0.7664568 0.22652894 0.29226992 -0.16641046 0.25192425 -0.05316242 0.7724134
0.41090915 0.09551499 -0.45542252 0.1964753 -0.0116694905 -0.14991155 -0.08169214 0.4674751
-0.25790185 -0.074510135 -0.12294877 0.4483222 -0.10384656 0.47714394 -0.06690461 0.51558316
-0.18263161 -0.047458123 0.010019433 0.19098619 0.22581142 0.44803798 0.22690682 -0.10440892
0.73542756 -0.1685223 0.13237484 0.7473221 0.5795319 0.58885 0.015940053 -0.03129593

encoder.2.weight f4 [64]
00000000: 9f0f 373f f152 183f 1976 2d3f 4400 2d3f
00000010: 2770 413f 1dac 0e3f d133 fa3e 3109 523f
00000020: 5d4b 313f ad81 523f 8c01 023f bc50 293f
00000030: 329a 3a3f 597b 3d3f fad4 0e3f d041 383f
00000040: 50c5 203f 25dc 323f 9d97 533f 11ca 283f
00000050: 7376 2f3f e3f3 313f 018c 373f 579b 143f
00000060: d1f7 223f 083e 433f 0faf 083f b9c0 2b3f
00000070: d82b 153f 96e0 2b3f b4e3 1b3f 220b 5a3f
00000080: 06a4 333f af9d 323f 92ba 083f 841f 553f
00000090: 0293 853f bbca 293f 2c68 703f 12eb 383f
000000a0: dcd6 5a3f 6977 123f 8c97 543f f046 5a3f
000000b0: 3fda dc3e 7d24 803f 740d 573f b75d 353f
000000c0: 546e 583f bee9 353f 317d 063f 9ab0 153f
000000d0: cb2e 493f 39d0 3f3f b678 353f 2f3b 333f
000000e0: e666 5a3f 879d dd3e 9e28 193f 6ac0 4a3f
000000f0: f0ff 453f 2765 3c3f b8e8 1f3f c96b 1f3f
0.7150821 0.5950156 0.6775833 0.6757853 0.75561756 0.55731374 0.48867658 0.82045275
0.6925562 0.8222912 0.5078361 0.66138816 0.72891533 0.7401634 0.55793726 0.7197542
0.62801075 0.69867164 0.8265322 0.6593333 0.68540114 0.69512767 0.71698004 0.5804953
0.6365939 0.7626653 0.5339212 0.67090946 0.58270025 0.67139566 0.6089432 0.8517324
0.70172155 0.69771856 0.53409684 0.83251214 1.0435488 0.6632497 0.93908954 0.7223369
0.854841 0.57213455 0.8304374 0.8526449 0.4313526 1.0011135 0.840049 0.7084612
0.8454335 0.7105979 0.52534777 0.584726 0.78587025 0.749271 0.70887315 0.7001218
0.8531326 0.43284246 0.598276 0.7919985 0.77343655 0.73591846 0.62464476 0.6227384

encoder.2.bias f4 [64]
00000000: 0958 b9bd 99ae 083e b296 2dbd 6e3a 393d
00000010: df4f c3bd 947d 22bc 76e8 66bd a7a5 fdbc
00000020: f39f 58bd 3c8d c0bd e242 f9bc 00a0 13bd
00000030: 2fa2 513a 5d27 803d 33f5 043a bccc 4fbd
00000040: 3c89 55bd 1632 05bd fe86 bb3d d096 393d
00000050: 72e6 7a3d b6f7 c73d 6ad5 46bd 4bcd e93c
00000060: f102 073e 6542 953d 5807 003d a1e9 a4bc
00000070: 7de1 a33c 7c82 af3d 63ca 46bd 417d afbc
00000080: 441e 1d3e 8409 c93d cf9b 1dbd b524 e33d
00000090: ac5f b13d eb72 a53d 1195 01bd a1e0 123d
000000a0: dac7 8a3b e202 f73d e0c2 253d 865e 043e
000000b0: 7474 95bb 2726 e83b c989 f53d aba4 e0bc
000000c0: 1709 efbd 8877 7a3d e59b c7bd 3508 433d
000000d0: 3d71 3bbb b3e7 e6bd e629 a53d 6184 e6bc
000000e0: 05eb b23c 91c5 69bd 8b17 59bc d241 913c
000000f0: 47a0 9d3c 23a4 90bd c5e3 ab3d 7832 1abd
-0.090499945 0.13347854 -0.042380042 0.04522174 -0.095367186 -0.0099176355 -0.056374036 -0.030962778
-0.052886914 -0.09401938 -0.0304274 -0.03604126 0.00079968845 0.06257508 0.0005071938 -0.05073236
-0.05213283 -0.03251847 0.09156607 0.04530984 0.061254926 0.09764044 -0.04854337 0.028540274
0.13184716 0.072880544 0.031257004 -0.020130934 0.020004982 0.0856981 -0.048532855 -0.02142203
0.15343577 0.09816268 -0.03847867 0.11090986 0.08660826 0.080785595 -0.0316363 0.035858754
0.00423525 0.12061097 0.04046905 0.12926683 -0.0045610014 0.0070846262 0.11989171 -0.02742227
-0.116716556 0.06114915 -0.097465314 0.04761525 -0.002860143 -0.11274662 0.08064632 -0.028139295
0.021840582 -0.05707318 -0.013250242 0.01773158 0.019241465 -0.070625566 0.08393053 -0.037645787

encoder.2.running_mean f4 [64]
00000000: 989c db3e 86ba 663e fd5c b93e 98f0 8b3e
00000010: 6ddc 2b3f f134 393e 167d 893e c7cd aa3e
00000020: b060 013f 1355 3a3f 15e6 2d3d a812 a53e
00000030: d204 f83e a0ea fe3e a97f ae3e 8ae9 813e
00000040: 607b 983e 4d87 c13e 2b21 1b3e ea7a ab3e
00000050: b5da cb3e 9ad8 063f bcdb 933e 2f87 cf3e
00000060: d0b3 aa3e 4fe4 4a3f eb9a a73e b4a2 c13e
00000070: e0d9 e23d d291 b63e 0f2d 7b3e 9505 493f
00000080: 6ea7 f33e ccaa 853e 889a 283d 0b3f b93e
00000090: bbc2 923e 44ef 5b3e f707 693e a8a1 073f
000000a0: 6844 113e 9a68 573e 8245 a73e a7b7 0b3f
000000b0: d048 063e d2d9 073f ace1 703e 3d0f 0b3f
000000c0: 89c2 333e 7205 683e 13f7 6d3e ce08 a23e
000000d0: 4755 d43e c988 033f b9ab a73e b535 473e
000000e0: fe74 3c3f f0c7 e13d 24e3 943e 7d63 3c3f
000000f0: 5434 1f3f f65c 203f af27 753e 653b 5c3e
0.4289291 0.2253209 0.36203757 0.27331996 0.6713322 0.18086602 0.26853245 0.3336012
0.5053816 0.7278606 0.04245575 0.32240796 0.48441178 0.4978838 0.34081772 0.2537349
0.29781628 0.3779854 0.15149371 0.33492213 0.39815298 0.5267426 0.28878582 0.40532824
0.3334031 0.7925462 0.3273538 0.37819445 0.110767126 0.35658127 0.24528907 0.7852414
0.47588676 0.2610687 0.041162997 0.3618091 0.28664193 0.21477991 0.22756945 0.5298104
0.14186251 0.21035996 0.32670218 0.54577106 0.13113713 0.5306674 0.23523587 0.54320127
0.17554678 0.22658327 0.23238783 0.31647342 0.4147131 0.5138059 0.327482 0.19454081
0.73616016 0.11024463 0.29079545 0.7358931 0.6218922 0.6264185 0.2394092 0.21507032

encoder.2.running_var f4 [64]
00000000: 41c1 353e 7e6b a23d 4be4 2c3e 24eb 1c3e
00000010: b0d2 393e 88ea d33d 72dc f43d 1044 213e
00000020: 199c 2c3e ad5e 323e d0c4 5e3c 1c31 2a3e
00000030: 00ae 2c3e 3c38 0f3e c678 033e 3b01 273e
00000040: 3edc 233e 4505 583e 4c5c 763d 2fc2 053e
00000050: 08db f73d 3c74 5d3e d6ea 533e 4e95 193e
00000060: f377 193e 4947 dc3d 2fad 153e 61a0 433e
00000070: db13 3e3d 168a 253e 9922 fb3d 69e0 133e
00000080: 496a 213e 4b92 143e 403d 663c 4c70 2c3e
00000090: 345b 273e d09c a43d 09ac d43d c9fb 153e
000000a0: 3d6e 8b3d 590e cf3d 6de1 383e 8ad3 843e
000000b0: 6f90 553d aaf8 573e 1730 e83d fcad 053e
000000c0: 6ef3 d33d 944c 033e 6228 db3d 1c01 db3d
000000d0: f25f 533e 0902 6e3e 7afa ec3d 9a62 7c3d
000000e0: d5b4 483e 70e1 323d d931 253e 366a e63d
000000f0: 24ba 263e 2f28 6a3e 8b58 de3d e222 d63d
0.17749502 0.07930659 0.16883962 0.15324074 0.18146777 0.10347468 0.11956109 0.1574862
0.16856422 0.17418928 0.013596728 0.16620296 0.1686325 0.13986295 0.1283904 0.16309063
0.16001984 0.2109576 0.060146615 0.13062356 0.12102324 0.21626371 0.20695052 0.14998361
0.14987163 0.10755784 0.14616846 0.19104148 0.046405654 0.16165957 0.12262458 0.14441074
0.15763201 0.14508931 0.014052689 0.16839713 0.16343385 0.08037722 0.103843756 0.1464683
0.06808136 0.101101585 0.18054743 0.25942641 0.052139696 0.21090952 0.113372974 0.13054651
0.10349165 0.12822181 0.10701062 0.10693571 0.20642069 0.23242964 0.11571212 0.06161747
0.19600232 0.043672025 0.16132297 0.11250727 0.16281945 0.22866891 0.10856732 0.10455872

encoder.3.weight f4 [8, 64]
00000000: 8e3d 3f3e 2247 3cbd a376 11be fa1d 393d
00000010: 0486 1fbe 336b b7be a676 c0bc 77a7 6abe
00000020: e2f2 403d 5f07 443e 496f 69bc 0864 cabd
00000030: 9e5c 41bd caed fb3d 8222 a0bd 04b3 063e
00000040: d192 163e 1f82 b0bd 0971 903d 58d4 883d
00000050: 65e3 f13d 2629 2e3b 8a62 f93d 3510 91be
00000060: c389 0d3d fd86 a4be 421d 45bd 8eed 993d
00000070: 1c9e 3a3e 39fe 233e 788e ad3d 0d12 85be
00000080: 59a0 c33c 5185 f43d f0f5 263e 8b38 0dbe
00000090: 591d b93d 4782 d4bd 6dd9 a63c 3fbf 1c3e
000000a0: b30e a73d c955 87bc 0951 073d 4509 203e
000000b0: 8663 0c3e 43a6 4e3e 77f1 f6bd 181a 41be
000000c0: 8a01 b83c 1ac3 373d 4c44 2b3d 5821 b8bd
000000d0: 35b0 f0bc 3d65 84bc 8200 4f3e d2bd 883d
000000e0: d700 be3c 9ac9 143d b453 533e 0315 1d3e
000000f0: b9f6 17be 5388 15bd 0bc0 a0bd 0e28 323e
00000100: 0164 963e a2fa 33be 171d 303e 3d31 003d
00000110: 3189 023e dc35 213d 0a4c 663e e279 44bd
00000120: 56a7 463e 32df 9e3d 8845 d5bd b3e2 30be
00000130: accc 613e 2c00 1abd 1176 d73d 552b 583e
00000140: 3ca4 8e3d fed9 4e3b ab18 0dbd 8140 64be
00000150: 4b4c 97bd 4600 9fbc 07fa 82be acd4 1cbe
00000160: 4087 59be 1579 2d3e 8cd7 81be 913e 29be
00000170: 6393 313e f677 b83c 45d7 5f3d 6214 8fbc
00000180: 26dc 6bbe c263 2d3e 6f90 8cbd 93ec b5be
00000190: 2e55 04be a488 35bd d20d bcbc cdd5 8b3d
000001a0: f778 b6bd fc38 96be b037 103e c87a c4bd
000001b0: b672 4bbe bd3f 85bd 608e cabe e12f ae3d
000001c0: 045a 453e b68a ab3b b8af 8bbd 9f71 9cbe
000001d0: 35de 053e 6560 023e 5378 0abe 1078 403d
000001e0: 9a19 5a3e d61f 893c 3ee8 a0bd 3687 f93d
000001f0: 883b 33be 3721 fb3d c4b9 2cbe 8141 d53d
00000200: 9c75 a2bd 2dc6 2dbd fee3 e8b9 c5b7 1ebe
00000210: 0b69 c93d e0fb 71bc 3a56 0abd 3a7a 4bbe
00000220: 93c1 5f3e 4064 1c3d 71f9 32be 589c d0bd
00000230: f106 31be af49 91bd 536b 0fbc 8f16 1b3e
00000240: ca90 5e3e a64d 193e ce49 83be a768 663c
00000250: 4fd0 71be 7b79 f8bd 2025 0e3e 0b82 b03d
00000260: 6468 74be e3fa dc3c 98c1 553d df52 bd3a
00000270: e63e 633d f743 abbd a811 5c3e 4475 94bd
00000280: e935 9fbd 0f82 29be b5ff 123e 3326 f4bb
00000290: 71ec bcbe ce4b 43bd 72ab a4be d646 68be
000002a0: de0a afbe 1236 b03d c170 09be 8fdd 06bd
000002b0: 7096 563c d67b fbbd fa68 9d3d af84 f43d
000002c0: aef1 0c3e b970 9cbd cc2a b03d 8690 093d
000002d0: 0245 4dbe 3325 643e c62e 0bbe dbc3 543e
000002e0: 1f7c 8bbe d96a e4bb 9a73 1b3e c808 843d
000002f0: f165 3c3e 0ad6 853e 2132 dcbd 0403 71ba
00000300: d509 e53d 9605 2bbd 99da 43be e8cd 4ebe
00000310: 13e5 9a3d 8b19 efbc 5525 bbbd f228 e73e
00000320: cca3 cb3d 94d5 84be fb11 c6bd 0680 273e
00000330: 447e 2abe 8a9a 013e 53f6 2b3e a608 1f3e
00000340: c5c6 0fbe 0102 0cbe 4a84 0dbd d109 c63c
00000350: 8dc7 91bd 8769 833c 3bfb 86ba f23d 2b3c
00000360: 7202 133c 2fcd 55be c5d6 38be 45c6 50be
00000370: fe26 273e d07a 78be 956c f43d 09ad 4e3e
00000380: bc23 9bbb cd57 4c3b b64b 793d 8c43 2cbe
00000390: 0a9f 513d 025a 3e3d 3f5b fabd 2c33 08bd
000003a0: a3c7 c93d 6619 e1bd 9637 0bbe ceb8 86be
000003b0: 6585 bcbd ddd9 f63d 85f7 8cbd 3d5f 763c
000003c0: 6fe2 e43e c35a a0be e672 b0bd 53e6 b8bc
000003d0: 4e28 ef3c e116 01be 3536 4dbc c17c c8be
000003e0: dfe8 86be 3292 863e 16a0 623c ac33 043d
000003f0: ed7e 8cbd 1614 553d b0a4 63be 6812 223e
0.18675825 -0.045966275 -0.14205413 0.045194604 -0.15578467 -0.35823974 -0.023494076 -0.22915445
0.04710663 0.19143437 -0.014247724 -0.09882361 -0.047207467 0.12301214 -0.07819082 0.13154227
0.14704444 -0.08618569 0.0705281 0.06681126 0.1181095 0.002657482 0.12176998 -0.28332677
0.034555208 -0.32134238 -0.048123606 0.07516013 0.18224376 0.16014947 0.084744394 -0.25990334
0.02388017 0.119394906 0.16304755 -0.137911 0.09038801 -0.10376411 0.020367349 0.1530733
0.081571005 -0.016520398 0.033036266 0.15628536 0.1370984 0.20180611 -0.120577745 -0.1885761
0.022461671 0.044863798 0.04181318 -0.08990735 -0.029380897 -0.016161555 0.20215037 0.0667683
0.02319376 0.036325075 0.20637399 0.15340047 -0.14840211 -0.036506962 -0.07849129 0.17398092
0.29373172 -0.17576078 0.17198597 0.031296957 0.12747647 0.039358005 0.22489944 -0.0479678
0.19399771 0.07757415 -0.10413653 -0.17273979 0.22050732 -0.03759782 0.10520566 0.2111028
0.06964919 0.003156304 -0.034447353 -0.22290231 -0.073875986 -0.01940931 -0.2558138 -0.15315503
-0.21243 0.1694072 -0.25359762 -0.16527773 0.1734138 0.02251814 0.054648656 -0.017465774
-0.23033199 0.16932586 -0.06863486 -0.35532054 -0.12923118 -0.044319764 -0.022955809 0.06827889
-0.08909791 -0.2934035 0.14083743 -0.09593731 -0.19867977 -0.06506298 -0.39561749 0.08505226
0.1927262 0.0052350415 -0.06820625 -0.30555436 0.13073047 0.12732084 -0.13522463 0.0469895
0.21298829 0.016738813 -0.07856797 0.121839926 -0.17503178 0.122621946 -0.16867739 0.104128845
-0.079325885 -0.042425323 -0.00044420356 -0.1549979 0.098344885 -0.014769524 -0.03377364 -0.19870844
0.21851186 0.038181543 -0.17477967 -0.1018607 -0.17287804 -0.07094132 -0.008753615 0.15145324
0.2173492 0.14971027 -0.25642246 0.014063037 -0.2361462 -0.121325456 0.1388135 0.08618554
-0.23867947 0.0269751 0.05218658 0.0014444253 0.055479906 -0.08362573 0.2149111 -0.07248929
-0.077739544 -0.1655352 0.14355357 -0.0074508428 -0.3689914 -0.047679715 -0.32162052 -0.22683272
-0.34187979 0.08604063 -0.13421918 -0.03292614 0.0130973905 -0.12279479 0.07686038 0.1193937
0.13764068 -0.07638688 0.08601913 0.033585094 -0.20045856 0.22279815 -0.13592061 0.20777838
-0.27243134 -0.006970745 0.15180817 0.064469874 0.18398263 0.2613986 -0.10751749 -0.000919387
0.11183516 -0.041753374 -0.19126357 -0.20195735 0.07563224 -0.029186985 -0.0913798 0.45148426
0.09943351 -0.25944197 -0.09671398 0.16357431 -0.16649729 0.12656608 0.16793184 0.15530643
-0.14040668 -0.1367264 -0.03454999 0.024174603 -0.071181394 0.01604153 -0.0010298261 0.010451781
0.008972751 -0.20879053 -0.18050678 -0.20388134 0.16323468 -0.24265599 0.11934773 0.20183195
-0.0047344845 0.0031180263 0.06086322 -0.16822642 0.051177062 0.046472557 -0.12224435 -0.033251926
0.09852531 -0.109911725 -0.13595423 -0.2631287 -0.092051305 0.12053273 -0.06883148 0.015037355
0.44704005 -0.31319246 -0.08615665 -0.022570765 0.029194023 -0.12606384 -0.012525131 -0.3915768
-0.26349542 0.26283413 0.013832113 0.03227584 -0.06860147 0.05202111 -0.22230792 0.15827334

encoder.3.bias f4 [8]
00000000: f788 d7bd db1f 76be 8449 fabd 4f73 90bc
00000010: 6b78 bebd 2ff3 f4bd a89d a33d b990 49be
-0.10524171 -0.2403559 -0.12221053 -0.017633108 -0.09300312 -0.11960446 0.07989055 -0.19684114

decoder.0.weight f4 [64, 8]
00000000: 77a1 df3d 60fe cfbd d929 24be b874 8c3b
00000010: 7586 003e 7fbf ff3c 9d28 a63e b22b 2cbe
00000020: fc83 48be 0a2a 23be 8194 1cbd af2b 96be
00000030: 1a4a 803e 7082 e0bc 5f62 92bc b72f 0bbe
00000040: 37ca 453e 0b70 753e 2445 8dbd 3d96 17be
00000050: bf6c 2abc c869 85bc 85a3 8cbd feba 59bc
00000060: 86e6 b5bc 756e 73be 97f7 edbd a2f8 cebe
00000070: a98c 5cbe 59d8 353e 7342 5f3e 9401 a13e
00000080: f914 b3be 0244 103e 85e0 37be 7044 3e3e
00000090: 3ca9 cebd c116 51be 9686 0abe 7091 a5be
000000a0: 7dbd 95bd a322 aa3e c5f7 86be ef1b 08be
000000b0: f2a5 a6bd 1106 c6bd 3209 b13e ae6c 94be
000000c0: 605f 583e 71d5 3cba 6beb 2e3e ada0 24bf
000000d0: cc61 c73c 37ea 07be 6a5a 13bd ad30 b2bd
000000e0: 5cc8 8dbe 0fa0 edbd 07fb e53c 6b96 4bbe
000000f0: d6b4 863e d12c 1fbe 7ddf 663c 6770 2ebe
00000100: ccce 27be 2ff8 bebe 6206 84bd cb06 66be
00000110: eae1 c4bd 1930 31bc ee92 f4bd d407 41be
00000120: 3822 553e f637 073f 58c6 c33b 6c10 163d
00000130: c2d1 ca3d 3c31 be3d cbe0 af3d 0fce da3e
00000140: 5227 05be f305 cf3d 3540 d63e f709 86bd
00000150: 51a4 6dbd 1301 df3e e7d8 313d ea75 f1bd
00000160: f4b0 443c 0fa0 37be 38c5 a0be b9d8 b1bd
00000170: 2eb3 5a3d b52a cfbe 56ea 7abd eddc 9f3d
00000180: 9d2d 9e3d d65b 8b3e e1ed d73d 0881 62bd
00000190: e344 3dbe 9c05 6fbd f291 ee3b 5566 e5bd
000001a0: 9e4b 89be bf71 0a3e 3fa6 94be 5b6a dfbd
000001b0: 90b7 183c d4d3 8abe 94b1 843d 2ebb 17bd
000001c0: 4b3f 2bbe 3a9e 113e dc3d ba3d 259b b13d
000001d0: 0164 d33c 4ef8 443e ef4b d33d b379 45be
000001e0: e7ac 84be d87b 633e b4e0 e33e ad50 2ebc
000001f0: f464 8b3d 460d 053f bfa9 123e eb0f 78be
00000200: 312c 70be c5f7 90bd 8e99 1bbd 7506 bcbe
00000210: d807 523d 8fc3 063e ab21 5f3e 4f57 c73c
00000220: 9c76 c23d 3f20 f93d ef8a 033d 367b 963e
00000230: 2c6c 1ebd 52d3 883e 8679 7fbe af2e d2bb
00000240: c22e 1ebe 198f 0ebd e824 2d3e ff63 683c
00000250: 5a35 bd3e 84bf efbc d9c9 a03e 0658 ba3e
00000260: 5929 83be 92b4 d93d 2bc6 6d3e fe62 9e3c
00000270: 895d 35bd c271 44be cfc5 07bf 1cf0 813e
00000280: 7e5c 803e f784 3e3e 0897 083e b8f2 6e3e
00000290: 1a32 923e 3af7 95bd 5de5 02be dad1 66be
000002a0: 2f0e 47be a087 7b3d e596 433e eb8d 753d
000002b0: 249e b6bd 99cc dbbc 9d88 cebe 5297 463e
000002c0: a9c3 773e 4460 173f 1b9b 423d 52a1 2d3e
000002d0: 73a2 833e 9b59 f53d b562 803d 4925 cb3e
000002e0: c91b 763e fc4e 303f 8db1 16bd 57a3 9d3d
000002f0: 7e0d ca3e 2ef1 653e ceee 943c cb87 f53e
00000300: 9b23 ef3e 70a8 3fbe 7b9c afbd c7c2 07be
00000310: 71d6 7fbe d829 f4bc 0965 5abe 07a1 2a3c
00000320: 44e1 453d 34f9 793e 3e27 a9be 72df c1bc
00000330: 4663 1ebe 8237 9abd 309d bd3e 90c7 74be
00000340: d3f0 3abe 6f0a 4e3e a9ef e13c c8c2 6fbe
00000350: 6fa6 fdbb d5ad 1ebe fd53 6bbe b94d 063e
00000360: fb11 31be f86c b8bd 9b30 b73c 7ec1 093f
00000370: 7505 083d 2b26 323e c67c 9d3c 99aa 5a3e
00000380: 260a 02bc 3328 efbc 8bef ae3e bc97 cdbd
00000390: f704 4b3b db67 e53e 3ce4 b83c de47 ebbd
000003a0: 9b09 843e e471 88be 9171 843e c398 f7bd
000003b0: e397 623e ffad 883c e6e4 94bd d86b 5d3e
000003c0: 9a6b 05be b98a 9fbd 1ae8 3e3e 9270 62bd
000003d0: c604 2ebe 5bdb 0dbe 45a7 d1be bfa3 753e
000003e0: 09ae 06be 8317 aebe bf46 873e 84b1 b03e
000003f0: d442 5f3e 218f a2bb 4738 083e f769 ab3d
0.10919469 -0.1015594 -0.16031589 0.004286375 0.12551291 0.031219242 0.3245286 -0.16813543
-0.19581598 -0.15934005 -0.03822756 -0.29330203 0.25056535 -0.027405947 -0.017869173 -0.1359242
0.1931542 0.23968522 -0.06897953 -0.14803405 -0.010401904 -0.016285792 -0.068671264 -0.013289211
-0.022204649 -0.23772605 -0.1161949 -0.40424067 -0.21538033 0.17758311 0.21802692 0.31446517
-0.34976938 0.14088443 -0.17956741 0.18580794 -0.10090873 -0.20418836 -0.13527903 -0.32337523
-0.07311533 0.3322955 -0.26360908 -0.13291906 -0.0813712 -0.09669126 0.34577328 -0.28989166
0.21130133 -0.0007203436 0.17081992 -0.6430767 0.024338625 -0.1327294 -0.035974897 -0.087006904
-0.27691925 -0.116027944 0.0280738 -0.19881599 0.26309842 -0.1554444 0.01409137 -0.17035066
-0.1638748 -0.37298724 -0.0644653 -0.22463529 -0.09613402 -0.01081469 -0.11942087 -0.18850642
0.20813835 0.52819765 0.005974572 0.036636755 0.099032894 0.092867345 0.08587798 0.42735335
-0.13003281 0.101085566 0.4184586 -0.065448694 -0.058018032 0.43555507 0.043419745 -0.117900684
0.01200508 -0.17932151 -0.31400466 -0.08683915 0.053393535 -0.4046227 -0.061258636 0.0780581
0.07723544 0.27218503 0.10543419 -0.055298835 -0.1848331 -0.05835496 0.0072805816 -0.11201159
-0.26815504 0.13519953 -0.29033086 -0.109089576 0.009321108 -0.27114737 0.06479183 -0.037043743
-0.16723363 0.14220515 0.0909383 0.086721696 0.025804522 0.19235346 0.103172176 -0.19284706
-0.25913164 0.22215211 0.44507372 -0.010639352 0.06806365 0.5197338 0.14322565 -0.24224822
-0.23454358 -0.07078508 -0.037988238 -0.36723676 0.05127701 0.13160537 0.21790187 0.024333624
0.09495279 0.121643536 0.03211492 0.29390877 -0.03867738 0.26723725 -0.24948701 -0.0064142565
-0.15447524 -0.034804437 0.1690861 0.014183997 0.36954767 -0.029266126 0.31403998 0.36395282
-0.25617483 0.10630144 0.23220126 0.019334313 -0.044278655 -0.1918402 -0.53036207 0.253785
0.25070566 0.1860541 0.13338864 0.23334777 0.2855385 -0.07322545 -0.12782808 -0.2254099
-0.19439004 0.06140864 0.1910053 0.059949797 -0.08916882 -0.026830958 -0.40338603 0.19393662
0.24195732 0.59131265 0.0475112 0.1695607 0.25709876 0.119799815 0.06268827 0.39676884
0.24034037 0.6887052 -0.03679042 0.0769717 0.3946342 0.22455284 0.018180277 0.47955164
0.46706852 -0.18716598 -0.08574768 -0.13257895 -0.24984147 -0.029805109 -0.21327604 0.0104143685
0.048310533 0.2441147 -0.33037752 -0.023666117 -0.15467557 -0.075301185 0.37033987 -0.23904252
-0.1825593 0.20121168 0.0275801 -0.23414147 -0.0077407877 -0.15495999 -0.22981258 0.13115586
-0.17292015 -0.09005159 0.022362044 0.5381087 0.03320833 0.17397372 0.019224536 0.2135414
-0.00793699 -0.029193973 0.34167132 -0.10038707 0.00309783 0.44805798 0.022569768 -0.11488317
0.25788578 -0.26649392 0.25867894 -0.12089684 0.22128253 0.01668453 -0.072702214 0.2162317
-0.13029328 -0.07790131 0.18643227 -0.055283137 -0.16994008 -0.13853209 -0.4094793 0.23988245
-0.13152327 -0.34002313 0.26421162 0.34510434 0.21802837 -0.00496091 0.13302718 0.083698206

decoder.0.bias f4 [64]
00000000: 541e 4a3e bcf2 983e cc34 bc3d 031b 323e
00000010: f062 f3bc ddb8 68be 6ec7 6bbe 21c3 a53d
00000020: f3d0 823e 2167 0ebf dfd8 90be a82b 70be
00000030: 6456 973e 973e ed3e 08a9 fa3e 25e0 46be
00000040: 6bba a7be 8aa2 62be f96e e53e c33d 61bf
00000050: 06a1 ebbe ead2 8ebe 345b b93e 0991 96bf
00000060: 877e c93e c503 01bf de24 9d3e feb9 afbd
00000070: 9c18 ba3e 5a53 ee3e 3720 ee3e e4f9 d13e
00000080: cf57 44be 3e73 6a3e 1e2e b9be eefd 72be
00000090: 6bd8 c5be b305 503e f3b4 fc3d d8c4 163e
000000a0: 70dc 383e 10ab e63d 1639 89be f6e3 0e3f
000000b0: 80ad f23e 7873 82bf 0948 dcbe 256d 453e
000000c0: c1f5 7abe db07 0a3e 84f4 fbbe 103a 133e
000000d0: 418d 1b3e 89c3 7e3e 0965 7b3e 327f 533d
000000e0: 6fe2 383e e492 093f 0fc2 043e ce90 52be
000000f0: 8041 2b3e f4b5 a8bc 5d9a 703d f405 653d
0.19738132 0.29872692 0.09189758 0.17393117 -0.029710263 -0.2272677 -0.23025295 0.080938585
0.2555004 -0.5562611 -0.2829046 -0.23454154 0.29558098 0.46336815 0.48957086 -0.19421442
-0.32759413 -0.22132316 0.44811228 -0.87984866 -0.4602129 -0.2789529 0.36202395 -1.1763011
0.39354345 -0.50396377 0.3069219 -0.08580397 0.363469 0.46547967 0.46508953 0.41010964
-0.19174121 0.22895524 -0.36167997 -0.23729679 -0.38641676 0.20314674 0.12339201 0.14723527
0.1805284 0.11263096 -0.26801366 0.5581659 0.47397995 -1.0191488 -0.43023708 0.19279917
-0.2450781 0.13479559 -0.49209988 0.14377618 0.15190603 0.24879278 0.2455026 0.051634975
0.18055128 0.5373976 0.12964652 -0.20563051 0.16724205 -0.020594575 0.058740962 0.05591388

decoder.2.weight f4 [14, 64]
00000000: ffdd 99bb 3907 8dbd cfaf 1abe 6e56 843d
00000010: f725 8ebe a0a6 10be e43d 72be 9b22 87bd
00000020: 26cf 60bc 2866 2e3e 3981 ac3e 1c95 123e
00000030: bb46 7cbe e339 a5be 4401 b0bd 6323 253e
00000040: 9938 883d 5d61 44bd 8d48 b23e 9d6c 3a3e
00000050: 7105 903d b271 7d3d fde2 433e 5930 843d
00000060: 3529 fcbd 522a 9c3d 58f4 67bd 662b 003e
00000070: ec7b 4a3e a103 313e 1a43 2ebe b266 9b3e
00000080: 150e be3c 685e 3bbe d9ad a03d ae40 593e
00000090: bb1c f43d 4ea4 e33d a5d5 90bd a342 3bbe
000000a0: 8eb4 293e 8586 023d a527 693d f99b a5be
000000b0: 510b 76bd bf59 673d 7bd9 61bd 2b36 553e
000000c0: 73d7 4e3e 2e12 adbd 8454 80be d1c3 a9ba
000000d0: 7976 c53d e530 a5be d268 b03e 0bac b63d
000000e0: 73cf 65bd dac7 9bbe 43d8 343e d38d bbbd
000000f0: 65f4 113d ecba 773e 82c7 57bb 0450 863e
00000100: cf34 65be 03c0 05be 26aa babc a872 943b
00000110: 6512 04bd c103 32be c159 08bd 60e8 683d
00000120: abe8 c2bd e18c 863e 86ec 6dbc 6b6e 303d
00000130: b94f 733d a5a5 a63d 9286 74be 37de b3bd
00000140: ec4b 17bc 96c3 12bd f805 ad3d 5416 783e
00000150: 1f1a e6bd 9e73 a43e 783c 8b3e cfb8 253e
00000160: 5324 0dbe a9bf ba3a b762 813e 7580 aabc
00000170: 0b0a 1abe 3b70 ce3c 24ae 933e fce4 1f3d
00000180: 601e f13d 29fd fabc c19c 703b d3ab 4bbe
00000190: df56 dc3d 3342 6ebd 149d da3d d5ec c73d
000001a0: be85 c53d 21d2 2dbe 8228 5ebe ab2a ecbc
000001b0: 9c52 153e b938 b23e 1c5d aa3d 0688 9d3d
000001c0: 136d 3bbe a70e aabd 552d 7abc d0c7 ff3c
000001d0: 2749 3fbc bea7 5c3c aa2b 77bd 092e 0e3e
000001e0: ea71 1bbe 1c97 013e 7568 8dbd dc22 2d3e
000001f0: 5670 3cbe b8d3 cc3d 4ff7 773d 5006 a83a
00000200: c35b de3d 72a3 273e abc2 cabd 614b 7fbd
00000210: 5cbc a6bc 11ed ecbd 2b45 f03d ed6b b13d
00000220: 79fb 0d3e d6c0 e5be 383d 15be aeb3 3a3d
00000230: 09cb abbc 666d a8bd 19b6 32be d4ad febd
00000240: 4e95 66be f55a e43c 30b8 ccbc ce42 da3d
00000250: dd71 373d 7ddd 6fbc a301 89be 437b 37be
00000260: dbd1 073e a22a 59bd 8aff d0bd 5338 613c
00000270: bb5f c5bd 25a4 093e 4520 183e d484 2f3e
00000280: f39c 5ebd 7273 3b3d 1698 9abd 3e88 8cbe
00000290: e9db 823c 1e67 b93d b01f 15bc 26ef fa3c
000002a0: b97a 08bd 01bc 853d 46ec 8cbb 6aab f5bd
000002b0: 3257 4ebe 0eeb f83d 2021 51bd df85 fd3d
000002c0: b4ec 4e3d efac 013e 0362 2dbc 2110 9abd
000002d0: 3183 0abe 1b25 3bbe 8cc9 f73d e5c3 9bba
000002e0: e885 89bd 4e73 873d bd4b 12bc a236 64bd
000002f0: f317 8dbd b818 0d3e 0c8b 2c3c ae05 a13b
00000300: 21d0 633e 8be8 283c 1a6e 563d b87d 843a
00000310: daa2 58be 9dd7 27bd 150d c23d ad7e 1e3d
00000320: 71ed aebd 76b5 943e 0be7 82be e77e a5bc
00000330: 4a57 5fbd ef0d 093c 1e7f fcbd c50c 5fbe
00000340: f147 29be 4f5e 1dbd 5590 76bb 8a80 4fbe
00000350: a395 093e acb3 4ebe 4486 5f3e 30c4 d83d
00000360: 2453 763d d472 7abd bdbf 9dbd 5096 8b3c
00000370: d003 4dbe 3bab 2a3e f024 dbbd 5404 20bc
00000380: 3df4 90bc a117 00be 0aae 31bd 1cdd 95be
00000390: b7ba a7bd 8dff babd d55e 9e3d 38db 2a3e
000003a0: b7f0 a83d ba48 173d 0aa1 a83d 2383 593d
000003b0: cc3a 873e 4cd2 a9be 2cf6 503d 0e1f 9abb
000003c0: 5d97 7d3c 6911 963d db57 493a 3462 e1bb
000003d0: a9df d73d 533f 1bbe e248 d33d 11af 00be
000003e0: ffeb 0fbe dbbf c33d 644b 803e feca f73b
000003f0: 5bea ad3c 3989 96bd 8d7e adbd 4bef 54bd
-0.0046956534 -0.06886143 -0.15106128 0.06461798 -0.2776334 -0.14126062 -0.23656422 -0.06598397
-0.013721263 0.17031157 0.3369234 0.14314693 -0.24636357 -0.32270727 -0.085939914 0.1612678
0.0665142 -0.047944415 0.34820977 0.18205495 0.07032288 0.061876006 0.19129558 0.06454534
-0.12312547 0.076252595 -0.05662951 0.12516555 0.19773835 0.1728654 -0.17017785 0.30351788
0.023200074 -0.18297732 0.07845659 0.2121608 0.119195424 0.11115323 -0.070719995 -0.18287139
0.16572782 0.03186657 0.056922574 -0.3234556 -0.060069386 0.056482073 -0.055139046 0.20821445
0.20199375 -0.08450733 -0.2506448 -0.0012952035 0.096417375 -0.32263866 0.34454972 0.08919533
-0.056106042 -0.30425912 0.17660622 -0.0915791 0.035633463 0.24192399 -0.0032925312 0.26232922
-0.22383426 -0.13061528 -0.022786211 0.0045302697 -0.032244105 -0.17384245 -0.03328872 0.056862235
-0.09517034 0.26279357 -0.014521724 0.043074053 0.0594022 0.08137063 -0.2387946 -0.087826185
-0.00923441 -0.035831057 0.08448404 0.24227268 -0.11235451 0.3211946 0.27194571 0.1618378
-0.13783388 0.0014247793 0.25270626 -0.020813206 -0.15042894 0.0252 0.28843796 0.039036736
0.11773372 -0.030638294 0.0036714526 -0.19889764 0.10758757 -0.0581686 0.106744915 0.09761969
0.0964465 -0.16974689 -0.2169514 -0.02882894 0.14582294 0.348089 0.083185405 0.0769196
-0.18303327 -0.08303576 -0.015269597 0.031223208 -0.011675156 0.013467727 -0.060344376 0.13884749
-0.15180174 0.126553 -0.06904689 0.16907829 -0.18402228 0.1000132 0.060538586 0.0012819264
0.10857346 0.16370943 -0.09900411 -0.062327746 -0.020353489 -0.11568654 0.11731943 0.08663163
0.1386546 -0.44873685 -0.14574134 0.045581512 -0.020970838 -0.08223991 -0.17452277 -0.12435499
-0.22517893 0.027875403 -0.024990171 0.10657273 0.044786323 -0.014640209 -0.2675906 -0.17918114
0.13263647 -0.053019173 -0.1020499 0.013746339 -0.096374 0.13441522 0.1485606 0.17140514
-0.054348897 0.045764394 -0.07548539 -0.27447695 0.015974002 0.09052871 -0.009101793 0.030631613
-0.033320162 0.065299995 -0.004300627 -0.11995585 -0.2015045 0.12154208 -0.05105698 0.123790495
0.050518706 0.12663625 -0.01058245 -0.075226076 -0.13526608 -0.18275873 0.12098989 -0.0011883943
-0.06714994 0.066137895 -0.00892919 -0.055716164 -0.068893336 0.1377896 0.010531198 0.004914007
0.22247364 0.010309349 0.052351095 0.0010108268 -0.21155873 -0.04097711 0.094751514 0.038695026
-0.08541382 0.29044694 -0.25566897 -0.020202113 -0.054526605 0.008365138 -0.12328933 -0.21782215
-0.1653135 -0.038420018 -0.003762265 -0.20263878 0.13435988 -0.20185727 0.21828562 0.10584295
0.060137883 -0.061144665 -0.07702587 0.017039448 -0.20020986 0.16666882 -0.10700405 -0.009766657
-0.017694587 -0.12509014 -0.043378867 -0.29270256 -0.0818991 -0.09130774 0.077329315 0.16685188
0.08249038 0.03693459 0.08233841 0.053103577 0.26412046 -0.33168256 0.051016018 -0.004703409
0.015477982 0.073275395 0.0007680633 -0.006878162 0.10540707 -0.15160875 0.10316636 -0.12566783
-0.14054869 0.09558078 0.25057518 0.0075620404 0.021229913 -0.07350392 -0.08471403 -0.05198602

decoder.2.bias f4 [14]
00000000: 076f ebbd 47bd 0b3e e2f5 943d 89bd 723e
00000010: aab1 383a fc45 413e b9f8 7cbe c140 0dbd
00000020: 8e3e 5dbe 008d a6be 7041 263e dc5e f13e
00000030: 732a 46be 45b5 f23d
-0.11495786 0.13646422 0.07273461 0.23705114 0.0007045517 0.18874353 -0.24704255 -0.034485582
-0.21605894 -0.3252945 0.162359 0.47142684 -0.1935213 0.11850981
